…
To enable the following instructions: SSE3 SSE4.1 SSE4.2 AVX AVX2 FMA, in other operations, rebuild TensorFlow with the appropriate compiler flags.

| Fold  2 |

| Fold  3 |

| Fold  4 |

| Fold  5 |

| Fold  6 |

| Fold  7 |

| Fold  8 |

| Fold  9 |

| Fold 10 |

| Summary of the model:
Model: "sequential"
┏━━━━━━━━━━━━━━━━━━━━━━━━━━━━━━━━━━━━━━┳━━━━━━━━━━━━━━━━━━━━━━━━━━━━━┳━━━━━━━━━━━━━━━━━┓
┃ Layer (type)                         ┃ Output Shape                ┃         Param # ┃
┡━━━━━━━━━━━━━━━━━━━━━━━━━━━━━━━━━━━━━━╇━━━━━━━━━━━━━━━━━━━━━━━━━━━━━╇━━━━━━━━━━━━━━━━━┩
│ conv1d (Conv1D)                      │ (None, 2047, 64)            │             256 │
├──────────────────────────────────────┼─────────────────────────────┼─────────────────┤
│ max_pooling1d (MaxPooling1D)         │ (None, 682, 64)             │               0 │
├──────────────────────────────────────┼─────────────────────────────┼─────────────────┤
│ conv1d_1 (Conv1D)                    │ (None, 682, 64)             │          12,352 │
├──────────────────────────────────────┼─────────────────────────────┼─────────────────┤
│ max_pooling1d_1 (MaxPooling1D)       │ (None, 227, 64)             │               0 │
├──────────────────────────────────────┼─────────────────────────────┼─────────────────┤
│ conv1d_2 (Conv1D)                    │ (None, 227, 64)             │          12,352 │
├──────────────────────────────────────┼─────────────────────────────┼─────────────────┤
│ max_pooling1d_2 (MaxPooling1D)       │ (None, 75, 64)              │               0 │
├──────────────────────────────────────┼─────────────────────────────┼─────────────────┤
│ conv1d_3 (Conv1D)                    │ (None, 75, 64)              │          12,352 │
├──────────────────────────────────────┼─────────────────────────────┼─────────────────┤
│ max_pooling1d_3 (MaxPooling1D)       │ (None, 25, 64)              │               0 │
├──────────────────────────────────────┼─────────────────────────────┼─────────────────┤
│ conv1d_4 (Conv1D)                    │ (None, 25, 128)             │          24,704 │
├──────────────────────────────────────┼─────────────────────────────┼─────────────────┤
│ conv1d_5 (Conv1D)                    │ (None, 25, 64)              │          24,640 │
├──────────────────────────────────────┼─────────────────────────────┼─────────────────┤
│ conv1d_6 (Conv1D)                    │ (None, 25, 128)             │          41,088 │
├──────────────────────────────────────┼─────────────────────────────┼─────────────────┤
│ conv1d_7 (Conv1D)                    │ (None, 25, 128)             │          82,048 │
├──────────────────────────────────────┼─────────────────────────────┼─────────────────┤
│ conv1d_8 (Conv1D)                    │ (None, 25, 96)              │          86,112 │
├──────────────────────────────────────┼─────────────────────────────┼─────────────────┤
│ dropout (Dropout)                    │ (None, 25, 96)              │               0 │
├──────────────────────────────────────┼─────────────────────────────┼─────────────────┤
│ flatten (Flatten)                    │ (None, 2400)                │               0 │
├──────────────────────────────────────┼─────────────────────────────┼─────────────────┤
│ dense (Dense)                        │ (None, 256)                 │         614,656 │
├──────────────────────────────────────┼─────────────────────────────┼─────────────────┤
│ dense_1 (Dense)                      │ (None, 4)                   │           1,028 │
└──────────────────────────────────────┴─────────────────────────────┴─────────────────┘
 Total params: 911,588 (3.48 MB)
 Trainable params: 911,588 (3.48 MB)
 Non-trainable params: 0 (0.00 B)

| Config of each layer:

|| Layer "conv1d":
{
    "name": "conv1d",
    "trainable": true,
    "dtype": {
        "module": "keras",
        "class_name": "DTypePolicy",
        "config": {
            "name": "float32"
…
