…
To enable the following instructions: SSE3 SSE4.1 SSE4.2 AVX AVX2 FMA, in other operations, rebuild TensorFlow with the appropriate compiler flags.

| Fold  2 |

| Fold  3 |

| Fold  4 |

| Fold  5 |

| Fold  6 |

| Fold  7 |

| Fold  8 |

| Fold  9 |

| Fold 10 |

| Summary of the model:
Model: "sequential"
┏━━━━━━━━━━━━━━━━━━━━━━━━━━━━━━━━━━━━━━┳━━━━━━━━━━━━━━━━━━━━━━━━━━━━━┳━━━━━━━━━━━━━━━━━┓
┃ Layer (type)                         ┃ Output Shape                ┃         Param # ┃
┡━━━━━━━━━━━━━━━━━━━━━━━━━━━━━━━━━━━━━━╇━━━━━━━━━━━━━━━━━━━━━━━━━━━━━╇━━━━━━━━━━━━━━━━━┩
│ separable_conv1d (SeparableConv1D)   │ (None, 2047, 32)            │              67 │
├──────────────────────────────────────┼─────────────────────────────┼─────────────────┤
│ average_pooling1d (AveragePooling1D) │ (None, 682, 32)             │               0 │
├──────────────────────────────────────┼─────────────────────────────┼─────────────────┤
│ separable_conv1d_1 (SeparableConv1D) │ (None, 682, 64)             │           2,208 │
├──────────────────────────────────────┼─────────────────────────────┼─────────────────┤
│ average_pooling1d_1                  │ (None, 227, 64)             │               0 │
│ (AveragePooling1D)                   │                             │                 │
├──────────────────────────────────────┼─────────────────────────────┼─────────────────┤
│ separable_conv1d_2 (SeparableConv1D) │ (None, 227, 128)            │           8,512 │
├──────────────────────────────────────┼─────────────────────────────┼─────────────────┤
│ average_pooling1d_2                  │ (None, 75, 128)             │               0 │
│ (AveragePooling1D)                   │                             │                 │
├──────────────────────────────────────┼─────────────────────────────┼─────────────────┤
│ separable_conv1d_3 (SeparableConv1D) │ (None, 75, 128)             │          16,896 │
├──────────────────────────────────────┼─────────────────────────────┼─────────────────┤
│ average_pooling1d_3                  │ (None, 25, 128)             │               0 │
│ (AveragePooling1D)                   │                             │                 │
├──────────────────────────────────────┼─────────────────────────────┼─────────────────┤
│ dropout (Dropout)                    │ (None, 25, 128)             │               0 │
├──────────────────────────────────────┼─────────────────────────────┼─────────────────┤
│ flatten (Flatten)                    │ (None, 3200)                │               0 │
├──────────────────────────────────────┼─────────────────────────────┼─────────────────┤
│ dense (Dense)                        │ (None, 256)                 │         819,456 │
├──────────────────────────────────────┼─────────────────────────────┼─────────────────┤
│ dense_1 (Dense)                      │ (None, 2)                   │             514 │
└──────────────────────────────────────┴─────────────────────────────┴─────────────────┘
 Total params: 847,653 (3.23 MB)
 Trainable params: 847,653 (3.23 MB)
 Non-trainable params: 0 (0.00 B)

| Config of each layer:

|| Layer "separable_conv1d":
{
    "name": "separable_conv1d",
    "trainable": true,
    "dtype": {
        "module": "keras",
        "class_name": "DTypePolicy",
        "config": {
…
