…
2025-11-12 22:17:52.691586: I tensorflow/core/platform/cpu_feature_guard.cc:210] This TensorFlow binary is optimized to use available CPU instructions in performance-critical operations.
To enable the following instructions: SSE3 SSE4.1 SSE4.2 AVX AVX2 
FMA, in other operations, rebuild TensorFlow with the appropriate 
compiler flags.

| Fold  2 |

| Fold  3 |

| Fold  4 |

| Fold  5 |

| Fold  6 |

| Fold  7 |

| Fold  8 |

| Fold  9 |

| Fold 10 |

| Summary of the model:
Model: "sequential"
┏━━━━━━━━━━━━━━━━━━━━━━━━━━┳━━━━━━━━━━━━━━━━━━━━┳━━━━━━━━━━━━┓
┃ Layer (type)             ┃ Output Shape       ┃    Param # ┃    
┡━━━━━━━━━━━━━━━━━━━━━━━━━━╇━━━━━━━━━━━━━━━━━━━━╇━━━━━━━━━━━━┩    
│ conv1d (Conv1D)          │ (None, 2047, 32)   │        128 │    
├──────────────────────────┼────────────────────┼────────────┤    
│ average_pooling1d        │ (None, 682, 32)    │          0 │    
│ (AveragePooling1D)       │                    │            │    
├──────────────────────────┼────────────────────┼────────────┤    
│ conv1d_1 (Conv1D)        │ (None, 682, 64)    │      6,208 │    
├──────────────────────────┼────────────────────┼────────────┤    
│ average_pooling1d_1      │ (None, 227, 64)    │          0 │    
│ (AveragePooling1D)       │                    │            │    
├──────────────────────────┼────────────────────┼────────────┤    
│ conv1d_2 (Conv1D)        │ (None, 227, 128)   │     24,704 │    
├──────────────────────────┼────────────────────┼────────────┤    
│ average_pooling1d_2      │ (None, 75, 128)    │          0 │    
│ (AveragePooling1D)       │                    │            │    
├──────────────────────────┼────────────────────┼────────────┤    
│ conv1d_3 (Conv1D)        │ (None, 75, 128)    │     49,280 │    
├──────────────────────────┼────────────────────┼────────────┤    
│ average_pooling1d_3      │ (None, 25, 128)    │          0 │    
│ (AveragePooling1D)       │                    │            │    
├──────────────────────────┼────────────────────┼────────────┤    
│ dropout (Dropout)        │ (None, 25, 128)    │          0 │    
├──────────────────────────┼────────────────────┼────────────┤    
│ flatten (Flatten)        │ (None, 3200)       │          0 │    
├──────────────────────────┼────────────────────┼────────────┤    
│ dense (Dense)            │ (None, 256)        │    819,456 │    
├──────────────────────────┼────────────────────┼────────────┤    
│ dense_1 (Dense)          │ (None, 4)          │      1,028 │    
└──────────────────────────┴────────────────────┴────────────┘    
 Total params: 900,804 (3.44 MB)
 Trainable params: 900,804 (3.44 MB)
 Non-trainable params: 0 (0.00 B)

| Config of each layer:

|| Layer "conv1d":
{
    "name": "conv1d",
    "trainable": true,
    "dtype": {
        "module": "keras",
        "class_name": "DTypePolicy",
        "config": {
            "name": "float32"
        },
…
